…
To enable them in other operations, rebuild TensorFlow with the appropriate compiler flags.
2022-11-09 00:12:32.881504: I tensorflow/core/common_runtime/gpu/gpu_device.cc:1258] Device interconnect StreamExecutor with strength 1 edge matrix:
2022-11-09 00:12:32.883522: I tensorflow/core/common_runtime/gpu/gpu_device.cc:1264]
Model: "model"
_________________________________________________________________
Layer (type)                 Output Shape              Param #
=================================================================
input_1 (InputLayer)         [(None, 32, 32, 3)]       0
_________________________________________________________________
conv2d (Conv2D)              (None, 32, 32, 32)        896
_________________________________________________________________
batch_normalization (BatchNo (None, 32, 32, 32)        128
_________________________________________________________________
conv2d_1 (Conv2D)            (None, 32, 32, 32)        9248
_________________________________________________________________
batch_normalization_1 (Batch (None, 32, 32, 32)        128
_________________________________________________________________
max_pooling2d (MaxPooling2D) (None, 16, 16, 32)        0
_________________________________________________________________
conv2d_2 (Conv2D)            (None, 16, 16, 64)        18496
_________________________________________________________________
batch_normalization_2 (Batch (None, 16, 16, 64)        256
_________________________________________________________________
conv2d_3 (Conv2D)            (None, 16, 16, 64)        36928
_________________________________________________________________
batch_normalization_3 (Batch (None, 16, 16, 64)        256
_________________________________________________________________
max_pooling2d_1 (MaxPooling2 (None, 8, 8, 64)          0
_________________________________________________________________
conv2d_4 (Conv2D)            (None, 8, 8, 128)         73856
_________________________________________________________________
batch_normalization_4 (Batch (None, 8, 8, 128)         512
_________________________________________________________________
conv2d_5 (Conv2D)            (None, 8, 8, 128)         147584
_________________________________________________________________
batch_normalization_5 (Batch (None, 8, 8, 128)         512
_________________________________________________________________
max_pooling2d_2 (MaxPooling2 (None, 4, 4, 128)         0
_________________________________________________________________
flatten (Flatten)            (None, 2048)              0
_________________________________________________________________
dropout (Dropout)            (None, 2048)              0
_________________________________________________________________
dense (Dense)                (None, 1024)              2098176
_________________________________________________________________
dropout_1 (Dropout)          (None, 1024)              0
_________________________________________________________________
dense_1 (Dense)              (None, 10)                10250
=================================================================
Total params: 2,397,226
Trainable params: 2,396,330
Non-trainable params: 896
_________________________________________________________________
2022-11-09 00:12:33.348156: I tensorflow/compiler/mlir/mlir_graph_optimization_pass.cc:176] None of the MLIR Optimization Passes are enabled (registered 2)
1563/1563 [==============================] - 100s 64ms/step - loss: 1.3325 - accuracy: 0.5427 - val_loss: 1.0854 - val_accuracy: 0.6187
…
